models/baseline_mlp_autoencdoer.pt (torch, 49362 bytes, 12 tensors)

weight f4 [32, 42]
0	0x3fce3c9f	1.611225
1	0xc0d5615a	-6.6681337
2	0x3cf6ee64	0.03014297
3	0xc0448be9	-3.0710394
4	0x3eee6262	0.46559435
5	0x3fb80ff1	1.4379865
6	0x3f5bf1c0	0.85915756
7	0x4089c27e	4.3049917
8	0xbfeb177c	-1.8366542
9	0xbff64182	-1.9238741
10	0xbfaa901b	-1.3325227
11	0xbf98bfc8	-1.1933527
12	0x3f2fc4c7	0.68659633
13	0xc0892009	-4.2851605
14	0x3f04fe0d	0.5195015
15	0xbfa54eb3	-1.2914642
16	0xc04ca13d	-3.1973412
17	0xc0a9a577	-5.3014483
18	0x3fadc7f4	1.3576646
19	0x3f6cd794	0.92516446
20	0x405e599a	3.4742188
21	0x40557faf	3.3359182
22	0x3f5e5c7e	0.8685988
23	0x40a120c2	5.0352488
24	0xc0b06ff6	-5.513667
25	0xc05b1d9d	-3.4236825
26	0x3f8b266f	1.0871104
27	0x3fbbca64	1.467114
28	0xc0eae383	-7.3402724
29	0xbfbe9a5d	-1.4890858
30	0xc01a12ea	-2.4074044
31	0x3db54849	0.08851678
32	0xbfa20f2b	-1.2660879
33	0x3fd85144	1.68998
34	0xbebcb168	-0.368541
35	0x3f4b218d	0.7934807
36	0xc117d00d	-9.488294
37	0xc0bb9d45	-5.862948
38	0x40d4f907	6.655399
39	0xc031c972	-2.7779202
40	0xc0d8546d	-6.760306
41	0xbf34d3d1	-0.70635706
42	0x3f3e190c	0.7425697
43	0xc0854d49	-4.165684
44	0xc091e704	-4.55945
45	0x406878dd	3.632377
46	0xc0900b74	-4.501398
47	0x40b9c55f	5.805343
48	0x3f900c06	1.1253669
49	0xc11d94c1	-9.848817
50	0xbec2c0d0	-0.3803773
51	0xc0525050	-3.286152
52	0xbdd8b989	-0.10582263
53	0x3f84d652	1.0377905
54	0x3c92d7a9	0.0179251
55	0xbeffb7f7	-0.49945042
56	0x3e0dc42b	0.13844363
57	0xc03f9c64	-2.9939203
58	0xc0c07564	-6.01433
59	0xc060863a	-3.5081925
60	0x408ce794	4.403269
61	0xc0837869	-4.1084485
62	0xbec2fc16	-0.3808295
63	0xc09129cb	-4.5363517
64	0x3f9fc446	1.2481773
65	0x3f46543f	0.774723
66	0xbf3c6ef8	-0.73606825
67	0xc0b73438	-5.7251244
68	0xc0525636	-3.286512
69	0xc0186262	-2.3810048
70	0xbe7fc12a	-0.2497603
71	0x40c00b08	6.0013466
72	0xc051473d	-3.269973
73	0xc00cb230	-2.1983757
74	0xbf6e1b34	-0.9301026
75	0xc0ee6790	-7.450142
76	0xbfeb533a	-1.8384774
77	0xc10fa9d9	-8.978967
78	0xbfc45323	-1.5337871
79	0xc147f3a4	-12.496983
80	0xbe4cf55a	-0.20015469
81	0x40a23509	5.068974
82	0xc1165638	-9.3960495
83	0x40a47fa6	5.140582
84	0xbf4b05dd	-0.7930582
85	0xc11d5f98	-9.835838
86	0x40455d6f	3.0838277
87	0xbfcd48c7	-1.6037835
88	0xbe2391b2	-0.15973547
89	0x3eb20346	0.34768122
90	0x403e1720	2.9701614
91	0x4002bc7e	2.0427547
92	0xbc98cb4b	-0.018651625
93	0xc00f1828	-2.2358494
94	0x3ebfe769	0.3748124
95	0x3f93ec8b	1.1556562
96	0xbf1a9afb	-0.6039273
97	0xbfd288b7	-1.6447972
98	0x40227e5a	2.538962
99	0x3f0de481	0.55426794
100	0xc036c31a	-2.855658
101	0xbfe2705e	-1.7690542
102	0xbe3c5c4f	-0.18394588
103	0xbcb9033e	-0.022584554
104	0xbf870ba9	-1.0550433
105	0x3ffeb629	1.9899341
106	0x3f6aea58	0.9176383
107	0xc127e05a	-10.492273
108	0x4094f6dc	4.655134
109	0xbfe05788	-1.7526712
110	0xbffb5509	-1.9635326
111	0xc00c7a46	-2.194963
112	0xc0d83274	-6.756159
113	0xbf68e805	-0.90979034
114	0xc082bab3	-4.0852904
115	0xbf710d3b	-0.94160813
116	0x3d95b62e	0.07310139
117	0x3fac9429	1.3482715
118	0xbe7a2c6f	-0.24431013
119	0xc0f66f1b	-7.7010627
120	0xc14f081e	-12.939482
121	0xbfa42e52	-1.2826636
122	0x40e3370b	7.100469
123	0xc1548dd6	-13.284628
124	0x40aeea29	5.466084
125	0x3d0f9529	0.03505436
126	0x3f991fe3	1.1962856
127	0x416cdcfc	14.803951
128	0xc170593b	-15.021785
129	0x40901d04	4.503542
130	0xc04c3161	-3.1905138
131	0x408a17c6	4.315402
132	0xbddc2639	-0.10749478
133	0xc08aaa02	-4.333253
134	0x3fba0e0f	1.453554
135	0xbf96fd16	-1.1795986
136	0x40f59b9e	7.6752462
137	0xc001dd97	-2.0291498
138	0x3d447457	0.047962513
139	0x401c7e0a	2.4451928
140	0xbeeb988c	-0.46014822
141	0x3bb49cf8	0.005511876
142	0x3f40d9d3	0.75332373
143	0x3ff97c0c	1.9490981
144	0xc012c7e7	-2.293451
145	0x40656db2	3.5848203
146	0x3ed5d3e0	0.4176321
147	0x401a79b9	2.4136794
148	0x4026f540	2.6087189
149	0xbf1019ff	-0.56289667
150	0x3e84b7a1	0.25921348
151	0x3fdc6fa3	1.7221569
152	0x4041e199	3.0293944
153	0x403d3419	2.9563048
154	0x40589473	3.3840606
155	0xc0b47618	-5.6394157
156	0xbf92a28d	-1.1455857
157	0x404b185e	3.1733623
158	0x3fe9b120	1.8257179
159	0x3ed92270	0.42409086
160	0x4017ca0e	2.3717074
161	0x4005ea73	2.0924346
162	0x3f7b8302	0.9824678
163	0xc13393a2	-11.223543
164	0xc14bfb05	-12.748784
165	0x409ecce8	4.962513
166	0xc0c1c4fb	-6.0552955
167	0x401feb4f	2.498737
168	0xbfd1e85b	-1.6399034
169	0x4012794a	2.288653
170	0x409f23f2	4.973138
171	0xbfdc6564	-1.7218442
172	0x40534fcc	3.3017454
173	0xc05e2f4b	-3.4716365
174	0xc0f96896	-7.794017
175	0xc00997de	-2.1498942
176	0xc0b88434	-5.766138
177	0xc069f01c	-3.65528
178	0x40329018	2.7900448
179	0xbecfd7e8	-0.4059441
180	0x3f2ad7ab	0.66735333
181	0xbf81fc7c	-1.0155177
182	0x3fd8a001	1.6923829
183	0xc00d740e	-2.2102084
184	0xbfeb6cdc	-1.8392596
185	0x40063237	2.0968149
186	0xc054169b	-3.3138797
187	0xbfc914d0	-1.5709476
188	0xbfefc525	-1.8732039
189	0x4000b739	2.011183
190	0x4023b32e	2.5578113
191	0x3f0b83a0	0.5449772
192	0xc03af981	-2.9214785
193	0xc0714ab2	-3.770184
194	0xc0355125	-2.8330777
195	0x3f98ac99	1.1927673
196	0xbf163bab	-0.58684796
197	0xc0e4b5b7	-7.147182
198	0xbff05acd	-1.877771
199	0x4097048f	4.7193065
200	0xc018d58b	-2.3880336
201	0xc131a999	-11.103906
202	0x4025d845	2.591325
203	0x40403cc2	3.0037084
204	0x4105bbc3	8.35834
205	0xbf60a815	-0.8775647
206	0x4005f961	2.0933459
207	0xbfe234ed	-1.7672402
208	0xbc8c46a9	-0.017123537
209	0xc0a0a972	-5.0206842
210	0xbf9717a7	-1.1804093
211	0x406770ad	3.6162522
212	0x400bf5e8	2.186884
213	0xc040bfbf	-3.0117033
214	0x405342d1	3.3009531
215	0xc04088c9	-3.0083487
216	0xbf6b0752	-0.91808045
217	0xc0b31c1c	-5.5971813
218	0xc0259e96	-2.5878043
219	0xbe8577a7	-0.2606785
220	0xc07ca3c6	-3.947496
221	0xbe5011f2	-0.20319346
222	0xbd28130d	-0.041033793
223	0x3fec5097	1.8462094
224	0x401e28d6	2.4712424
225	0x4014dc44	2.325944
226	0x4069175e	3.6420512
227	0x3ee34541	0.44388774
228	0xbf2113d3	-0.62920874
229	0xc09f02f1	-4.969109
230	0xc0480505	-3.1253064
231	0xc092d639	-4.58865
232	0x3fbd7f7f	1.4804534
233	0x40e16c44	7.044466
234	0xbf8f0cf7	-1.1175832
235	0xbf8f3a32	-1.1189635
236	0xbe8f584d	-0.27997056
237	0xc0070b00	-2.1100464
238	0x3fb2c238	1.3965521
239	0xc0ce8cb1	-6.4546742
240	0xc02f28f4	-2.7368746
241	0x3fc108e9	1.5080844
242	0x3f95fd93	1.171801
243	0xc15acc09	-13.674813
244	0xbf1c11d8	-0.6096473
245	0xbfce3538	-1.6109991
246	0x40ad97cb	5.4247794
247	0x408c606c	4.3867702
248	0xc108eebf	-8.558288
249	0x40099d89	2.1502402
250	0x4131efd2	11.12105
251	0xbf9acb84	-1.2093358
252	0x401a2b8a	2.4089074
253	0xbfc51449	-1.5396816
254	0xbd892da8	-0.06698161
255	0x3f44d8cb	0.768933

bias f4 [32]
0	0xbf7fdd0a	-0.99946654
1	0xbfb1d340	-1.3892593
2	0x3fcb77e3	1.5895962
3	0xbf75f239	-0.9607273
4	0x400b0cad	2.1726487
5	0x402181c3	2.523545
6	0xbed82879	-0.42218378
7	0x3fc1ad56	1.5131023
8	0x3f39cd96	0.72579324
9	0x3f23e1ea	0.6401659
10	0xc000439b	-2.0041263
11	0x4037b2bd	2.8702843
12	0x3fdbb381	1.7164155
13	0xbf4ef8d1	-0.80848414
14	0xc02cf8e8	-2.702692
15	0xbfb7357d	-1.4313198
16	0x40a7a3ab	5.238729
17	0xbf267e6a	-0.6503664
18	0xbf9fe44a	-1.2491543
19	0x4057d59b	3.3724124
20	0xbe7f3eb6	-0.24926266
21	0xbd0c4fbf	-0.03425574
22	0xbe062d6f	-0.13103269
23	0x3f946886	1.1594398
24	0x3c10d09a	0.008838797
25	0xbf4e83ca	-0.80669844
26	0x3fa7e476	1.3116596
27	0x3f7a35c9	0.9773832
28	0xbfc78d39	-1.5589973
29	0x40600199	3.5000975
30	0x40176ec1	2.366135
31	0x3d8e254f	0.0694071

weight f4 [22, 32]
0	0x401dbdc8	2.4647083
1	0x3e9acfa0	0.3023653
2	0xc03a1fe6	-2.908197
3	0x404f0589	3.2347128
4	0x3f099486	0.53742254
5	0xc0d6521b	-6.6975226
6	0x3fc90927	1.5705918
7	0x3f646a04	0.89224267
8	0x402068de	2.5064006
9	0xc0166f4d	-2.3505433
10	0x3fa55385	1.2916113
11	0xc0000b46	-2.000688
12	0xbf74104e	-0.9533738
13	0xbfc36edb	-1.5268205
14	0x408c8b8a	4.3920336
15	0xbf9d15f2	-1.2272322
16	0x3f9d7eb9	1.2304298
17	0xbe18d5da	-0.14925328
18	0x3fafbdc7	1.372979
19	0xc05e190a	-3.4702783
20	0x3f06b845	0.52624923
21	0x3ebf06c4	0.3730985
22	0x400734dd	2.1126015
23	0xbfa244ee	-1.2677286
24	0xbe8454c8	-0.25845933
25	0x408604be	4.188079
26	0xbe7b3e50	-0.24535489
27	0x40074a9a	2.1139283
28	0x40bb2b01	5.8489995
29	0xc07c7ada	-3.9449983
30	0x3f84bef6	1.0370777
31	0xc0a3219e	-5.0978537
32	0xc16c6a72	-14.775988
33	0xbdf6f05f	-0.12057566
34	0xbf056524	-0.52107453
35	0xbd945ecd	-0.07244644
36	0xbfbb4ad6	-1.4632213
37	0x3d92ec22	0.07173945
38	0xc1b05575	-22.041727
39	0x40964c09	4.6967816
40	0xc1855a8d	-16.669214
41	0x3e8538bd	0.2601985
42	0x3efac7a6	0.48980445
43	0x402b640f	2.677982
44	0x3ff54468	1.9161501
45	0xc18127d7	-16.144453
46	0x3f045742	0.51695645
47	0x3f98158a	1.1881573
48	0x3f27154b	0.65266865
49	0x3f632673	0.88730544
50	0x3eaf3ad8	0.34224582
51	0x3fbb3ce3	1.4627956
52	0x3d98b18c	0.074557394
53	0xbe2dedde	-0.1698527
54	0x3fe32c6c	1.7747931
55	0xbd0dab70	-0.034587324
56	0x3e660745	0.2246371
57	0xbf961ea0	-1.1728096
58	0x3f9ca7bc	1.2238688
59	0x404408a6	3.0630279
60	0x3e108d5d	0.14116426
61	0xbe892abb	-0.26790413
62	0xbeaa382d	-0.33245984
63	0xc048576a	-3.1303353
64	0x40420c5f	3.032005
65	0xc0515855	-3.2710164
66	0x3c43622e	0.011925263
67	0xc0cd030b	-6.4066215
68	0xc0978c93	-4.73591
69	0x413414d8	11.255089
70	0x4093b174	4.6154118
71	0x40db3200	6.8498535
72	0x3faa129d	1.328693
73	0x4049c479	3.1526167
74	0xc0e461ea	-7.1369524
75	0xc01e4fd5	-2.4736226
76	0x409d2b1c	4.9115124
77	0xbf9fe23a	-1.2490914
78	0xc11d3363	-9.825046
79	0xbeed5998	-0.46357417
80	0xc1104861	-9.017671
81	0xbf3fd7a4	-0.74938416
82	0x409766ec	4.7313137
83	0x40af4845	5.477572
84	0xc0d21359	-6.564862
85	0xbee2727f	-0.4422798
86	0xc13206e1	-11.126679
87	0x412b8138	10.719048
88	0xbfee4325	-1.8614241
89	0xc127a32d	-10.477338
90	0x3f0a008c	0.53907084
91	0xc14d5999	-12.834374
92	0xc108c4d3	-8.548053
93	0xbf930f1e	-1.1488988
94	0x40d1bbcb	6.554174
95	0x3f799020	0.9748554
96	0x408caa18	4.3957634
97	0xc041a93d	-3.0259545
98	0x3ebd3295	0.36952654
99	0xc13962c1	-11.58661
100	0xc0b0b1c7	-5.5217013
101	0xc1539bb6	-13.225515
102	0x3ff1c723	1.8888897
103	0xbdf5da55	-0.12004534
104	0xbf00fea0	-0.50388527
105	0xc1888349	-17.064104
106	0xc131a8a7	-11.103675
107	0xc098e55a	-4.777997
108	0xbfe42174	-1.7822709
109	0x3ec84f3b	0.39122948
110	0xc0d8b2dd	-6.771834
111	0x3f304960	0.6886196
112	0x3fac7eee	1.3476236
113	0xc03ddd0c	-2.9666166
114	0x3f13a947	0.5768017
115	0xc11d6401	-9.836915
116	0xc1407cf9	-12.030511
117	0x3f0eacd5	0.5573247
118	0xc11a358f	-9.638076
119	0xc133d72c	-11.240032
120	0x3fd5c288	1.6699991
121	0x408b30e8	4.34972
122	0x3fda986e	1.7077768
123	0xbe68ee5f	-0.22747181
124	0xc1538248	-13.219307
125	0xbeaf9cad	-0.34299222
126	0x3f546e29	0.8298059
127	0x40838a8c	4.1106625
128	0x402f88d1	2.7427256
129	0xc13cdad4	-11.803425
130	0x3fdec0f0	1.740263
131	0x3fc7c2fc	1.560638
132	0x40b93e56	5.7888594
133	0x3ff0fb90	1.8826771
134	0x3e3f0ab6	0.1865643
135	0x3f6377fa	0.88854945
136	0xbcd59169	-0.026070314
137	0x3ebacb1b	0.36483082
138	0xc0bdefd9	-5.9355283
139	0x40f364cd	7.606055
140	0xc0182a92	-2.3775983
141	0x3f8323ab	1.024526
142	0x4037202d	2.8613389
143	0xc10a6f01	-8.652101
144	0x3fff5585	1.9947973
145	0xc1196199	-9.586328
146	0xc0a74cc6	-5.2281218
147	0x41c3d9c5	24.481333
148	0xbeb0f360	-0.3456068
149	0xc0d40f79	-6.6268888
150	0x3fa163a7	1.2608536
151	0x3f4e5afb	0.80607575
152	0x40c3d023	6.1191573
153	0x4029f54b	2.6555965
154	0xc10e8d36	-8.909475
155	0x4035e09f	2.8418348
156	0xc04a47ae	-3.160625
157	0x416f940e	14.973646
158	0x3fbe5e3a	1.4872506
159	0x4049a0d6	3.1504416
160	0x3f94c2ca	1.1621945
161	0xc12a12b9	-10.629571
162	0x3f6a38ee	0.9149312
163	0xbd63911b	-0.055558305
164	0x40b4af10	5.64637
165	0x40d75a12	6.729745
166	0xbf69c8d1	-0.91322047
167	0x3fdfb466	1.7476928
168	0x3d141bc7	0.036159303
169	0xbf2fa209	-0.6860662
170	0xc0c76ab5	-6.2317758
171	0x3fc2695d	1.5188404
172	0x3f843a5c	1.033031
173	0xbf4961f3	-0.78665084
174	0xbe4b1c05	-0.19834907
175	0xc130420b	-11.016124
176	0x3fdb03af	1.7110499
177	0xc12c2a31	-10.760301
178	0xc0b87c77	-5.7651935
179	0xc01f5749	-2.4897025
180	0x402f7818	2.741705
181	0xc0751e2c	-3.8299665
182	0xbd846b3a	-0.06465764
183	0xc0356883	-2.834504
184	0xc14f4c58	-12.956139
185	0x40015530	2.0208244
186	0xc10519b4	-8.318775
187	0x3fc00e67	1.5004395
188	0x3d86104d	0.06546078
189	0x4038e3a8	2.888895
190	0x3f350263	0.70706767
191	0x3fd8c07b	1.693374
192	0x40099315	2.1496022
193	0xbfa25651	-1.2682592
194	0x3fc43754	1.5329385
195	0xc10d9d4e	-8.850904
196	0xbfa2372e	-1.267309
197	0x41181037	9.503959
198	0x405c0b5b	3.438193
199	0x411130ad	9.074384
200	0x3f6a10ef	0.9143209
201	0xbd77b3bf	-0.060474154
202	0xc0447552	-3.0696607
203	0xbd8b7427	-0.06809264
204	0x3f6f2b92	0.9342586
205	0x3fa60d17	1.2972745
206	0xc12c94f2	-10.786364
207	0x40159ee6	2.3378234
208	0xc0fcba37	-7.8977313
209	0x3e097466	0.13423309
210	0x410a13e9	8.629861
211	0x3f9bd07c	1.2172999
212	0xc133287f	-11.197387
213	0xbf1748d9	-0.5909553
214	0xc116bdaa	-9.421305
215	0x4119e8f9	9.619378
216	0xbf253131	-0.64528185
217	0xc1187709	-9.529061
218	0xbe3b7a95	-0.1830848
219	0xc139d7c1	-11.615174
220	0xc10f4c15	-8.956075
221	0x3fea4e4f	1.8305148
222	0x4131e99e	11.119535
223	0x404cc567	3.1995485
224	0xc13e8b64	-11.909031
225	0xc03c7f2f	-2.9452627
226	0xc156668b	-13.400035
227	0xc03f44dd	-2.988578
228	0x413d9e49	11.851144
229	0x3f42a9d1	0.7604037
230	0x3ee34086	0.44385165
231	0xbe1c2d16	-0.15251574
232	0x4040bd29	3.0115454
233	0x40c2a98e	6.0831976
234	0x41266a1c	10.400906
235	0x3fa775ab	1.3082784
236	0xc0e88fad	-7.2675385
237	0x415305eb	13.188945
238	0x404b7dd8	3.179556
239	0x4064a22e	3.5723987
240	0xc09d6abe	-4.91928
241	0xbf0e79eb	-0.5565478
242	0x3f36b1f6	0.71365297
243	0x3f44765e	0.76743114
244	0x40ec17f7	7.3779254
245	0xbe93b9ba	-0.28852636
246	0xc0812611	-4.035897
247	0x3ef99231	0.48744348
248	0x3fb78eda	1.434047
249	0xc0a0a2db	-5.01988
250	0xc138a3cd	-11.53999
251	0xc171de58	-15.116783
252	0x40833252	4.0998926
253	0x408c64a5	4.3872857
254	0xc03a1ac0	-2.9078827
255	0x40a20e21	5.0642247

bias f4 [22]
0	0xbfd744a0	-1.6817818
1	0x4029fe3f	2.656143
2	0x3f0262e3	0.5093214
3	0x40418a70	3.0240746
4	0x3f9ead78	1.2396688
5	0x4055dec7	3.3417222
6	0xbfcec4ac	-1.615377
7	0x4072a7b9	3.791487
8	0xc04a3662	-3.1595693
9	0x3f9baada	1.2161515
10	0x3fd262c6	1.6436393
11	0xc00ec575	-2.2308018
12	0x3dec74cc	0.11545715
13	0x3f633db4	0.88766026
14	0xbf854129	-1.041051
15	0x4075c56a	3.8401742
16	0xbfe02a9e	-1.7513006
17	0x3d333be3	0.043758284
18	0x400c22f3	2.1896331
19	0x3fec1c4c	1.8446136
20	0x3e8b92b1	0.27260354
21	0x40434a1e	3.0513988

weight f4 [10, 22]
0	0xbdd425d2	-0.10358776
1	0x3fb71360	1.4302788
2	0xbed209f1	-0.4102321
3	0x3fb49252	1.4107153
4	0xbf44a158	-0.7680869
5	0x3edac067	0.42724916
6	0xbe6e8651	-0.23293425
7	0xc152c0b1	-13.172044
8	0x3ff734dd	1.9313008
9	0x3e858999	0.2608154
10	0x3f8b344f	1.0875338
11	0xc0b4f6de	-5.655135
12	0x3fa24960	1.2678642
13	0x3e3e1f42	0.18566611
14	0xbddb0388	-0.10694033
15	0xc1561572	-13.380236
16	0xc17cefca	-15.808542
17	0x3e4b1de1	0.19835617
18	0x3fed7e47	1.8554162
19	0x4019e8c2	2.4048314
20	0xbd8b6009	-0.068054266
21	0x3f578eea	0.84202445
22	0xbde4c050	-0.11169493
23	0xc25d7d0c	-55.372116
24	0xbde55243	-0.11197331
25	0x4090468e	4.5086126
26	0xbf3e8729	-0.7442499
27	0xbe871ce6	-0.26389235
28	0xbe170b84	-0.14750487
29	0x3e27c45a	0.16383496
30	0x40c9da67	6.3079104
31	0xbe98fb67	-0.29879305
32	0x402ce4dc	2.7014685
33	0x3f0642cf	0.5244569
34	0x40256215	2.5841115
35	0xbe054eed	-0.13018389
36	0xbe0aee2f	-0.13567422
37	0x3eaad4d2	0.33365494
38	0x3edf799d	0.4364747
39	0xbe94d23b	-0.29066643
40	0x401c7154	2.444417
41	0x40c5577e	6.16693
42	0x3eb08b93	0.34481487
43	0xc22cb71b	-43.178814
44	0x3e62400f	0.22094749
45	0x4002fadf	2.046562
46	0x3f76946f	0.9632024
47	0xbf62d4a0	-0.8860569
48	0x402417f5	2.5639622
49	0xbf834a5b	-1.0257066
50	0x3ecd9c4c	0.40158308
51	0x3ddce744	0.10786298
52	0x3f1fc68a	0.6241232
53	0xc1138f26	-9.222448
54	0x3eab9bb1	0.3351722
55	0xbe92465b	-0.28569302
56	0xbfc98af0	-1.5745525
57	0xc1171741	-9.443177
58	0xbdaf9d7c	-0.0857496
59	0x3e83771b	0.25676808
60	0xbf599117	-0.84987015
61	0xc1167f2a	-9.406046
62	0x409a0271	4.812798
63	0xbf867532	-1.0504515
64	0xbf41a944	-0.75648904
65	0x40ad0be1	5.4077
66	0xc01430eb	-2.3154857
67	0xc023df77	-2.5605142
68	0x3f546b27	0.82976
69	0xc2008a18	-32.134857
70	0xbedb2dc9	-0.4280837
71	0xbe738ae9	-0.23783459
72	0x3ed64056	0.4184596
73	0xbf1b016f	-0.6054906
74	0xc1586e0b	-13.526866
75	0x3e3362be	0.17518136
76	0x41486b9d	12.526273
77	0xbf776900	-0.9664459
78	0xc01b2fb7	-2.4247873
79	0x3c7c3fe8	0.015396096
80	0xc0247288	-2.5694904
81	0xbec33773	-0.38128242
82	0x419d7fb6	19.687359
83	0x3df3d118	0.11905116
84	0xc1b4d70e	-22.605007
85	0xc16e5fb9	-14.89837
86	0x416fc531	14.985642
87	0xbf9f8739	-1.2463142
88	0x3f650e82	0.8947526
89	0x40024f71	2.0360987
90	0x3e5f5cae	0.21812698
91	0xbe4d3677	-0.20040308
92	0x408bcdf3	4.3688903
93	0x409aae6f	4.833793
94	0x3e9097ee	0.28240913
95	0xbe08b0bd	-0.1334867
96	0x3e8e38bf	0.2777767
97	0xc0d5e9f1	-6.6848073
98	0xbf53e13a	-0.82765543
99	0x40968df4	4.7048283
100	0x3dbba28b	0.09161862
101	0xc0cb9e3e	-6.3630667
102	0x3f547772	0.8299476
103	0xbe4f5ae6	-0.20249519
104	0xbea28ae2	-0.31746584
105	0xc0cb4c2e	-6.3530493
106	0x3d704fe6	0.058669947
107	0x3ed8d004	0.42346203
108	0xbea30b17	-0.31844398
109	0x3e9b3ea7	0.30321237
110	0xbea9d300	-0.33168793
111	0x4103a60d	8.22804
112	0xbfdcde57	-1.7255353
113	0xc1ce41c1	-25.782106
114	0xc05b76c2	-3.4291234
115	0x3f2ee5fc	0.6831968
116	0xc06b9825	-3.6811612
117	0x3e0ba8d6	0.13638625
118	0x411d5f1f	9.835723
119	0xbd410ab3	-0.047129344
120	0xbe549d86	-0.20763215
121	0x3e8fdeb5	0.280996
122	0xc1fb4b60	-31.411804
123	0xbd367ad9	-0.04455075
124	0xbf2df393	-0.6794979
125	0xb8f8a740	-0.00011856714
126	0x3a8bc852	0.0010664559
127	0xbd863eca	-0.06554945
128	0xc06dd3a0	-3.7160416
129	0x4002cbc2	2.0436864
130	0xbd9e5697	-0.077313595
131	0x40bed049	5.9629254
132	0xbe812900	-0.25226593
133	0xc013fb4c	-2.312213
134	0x3cd1f498	0.025629327
135	0x3f277879	0.654182
136	0x409448f4	4.6339054
137	0x40b74321	5.7269444
138	0x3d9895ac	0.07450423
139	0xbe416a56	-0.1888822
140	0x3e7ef698	0.24898756
141	0xc0a530c0	-5.162201
142	0x3efb2f26	0.4905941
143	0x40b99156	5.798991
144	0x3f7d4400	0.98931885
145	0xc0a16a02	-5.0441904
146	0x3df6e146	0.12054686
147	0x3e0420b0	0.12903094
148	0xbf1b895d	-0.60756475
149	0xc0a2ac6f	-5.083549
150	0xbfa02ecc	-1.2514281
151	0x3eec24b5	0.46121755
152	0xbec54a31	-0.38533166
153	0xc019e060	-2.4043198
154	0x403e8d6b	2.9773815
155	0xbdf522b1	-0.119695075
156	0xc1571857	-13.443442
157	0x3fa6eac9	1.3040401
158	0x3eb9accd	0.3626465
159	0x3efec5b2	0.49760205
160	0xc15a860b	-13.657725
161	0xbe83fc38	-0.25778365
162	0xbdb051c6	-0.08609347
163	0xbd4a9f7b	-0.0494685
164	0x40512aef	3.2682455
165	0xbf08638d	-0.532769
166	0x3f075230	0.52859783
167	0xbe57fe1e	-0.21093032
168	0x4007bfb1	2.121075
169	0xbd5d87d4	-0.054084614
170	0x3fd4298e	1.6575181
171	0x3e558ecc	0.20855254
172	0xbe55332c	-0.20820302
173	0xbe2fa68f	-0.17153381
174	0x4082c4d9	4.0865293
175	0x3eba5899	0.3639572
176	0xbeb478dc	-0.35248458
177	0x3e8850ad	0.2662405
178	0xbef64a16	-0.48103398
179	0x40806422	4.0122232
180	0x3dc840bc	0.09777972
181	0x3f614d5a	0.88008654
182	0xbe39f408	-0.18159497
183	0xc11bf817	-9.748069
184	0x40598e25	3.3993008
185	0x3c342e98	0.010997437
186	0x3f7ec85a	0.9952446
187	0xc0ad7516	-5.4205427
188	0x4064c2f6	3.5743995
189	0xbca29291	-0.019845279
190	0xbf388632	-0.72079766
191	0xc123e0d6	-10.242392
192	0xc15e64bd	-13.899594
193	0xbaa6a298	-0.0012713252
194	0x4020d074	2.512723
195	0x408a1d1c	4.3160534
196	0x3ed86228	0.42262387
197	0xbdabb3db	-0.08383914
198	0x40fe1e79	7.94122
199	0xbed2d691	-0.41179326
200	0xc11e1865	-9.880956
201	0x3ec5c0fb	0.38623795
202	0xbce3d231	-0.027810188
203	0x3f1cba0a	0.61221373
204	0xc1243391	-10.262589
205	0xbdb68613	-0.089122914
206	0xbe81041a	-0.25198442
207	0xbdee46f0	-0.11634624
208	0x3ead6274	0.33864176
209	0xbea0679b	-0.31329045
210	0x3ee818ed	0.45331517
211	0x3e4bf392	0.19917133
212	0x4105b537	8.356742
213	0xbda0e4d7	-0.07856148
214	0x3f94726a	1.1597416
215	0xbe44db6e	-0.19224331
216	0x3f1c3439	0.61017185
217	0x3f794721	0.9737416
218	0x3f455bb1	0.77093035
219	0xbec0ad03	-0.37631997

bias f4 [10]
0	0x3f1faf2e	0.6237668
1	0xc020ba1f	-2.51136
2	0xbf961786	-1.1725929
3	0x3f0b1de8	0.5434251
4	0x3fb538ed	1.4157997
5	0xbf12461b	-0.5713822
6	0x3eb8cc42	0.36093336
7	0x3f8fda29	1.1238452
8	0x4002d63d	2.044326
9	0x3f2c2e5e	0.6725825

weight f4 [22, 10]
0	0xbf3a5a73	-0.72794265
1	0x3d1138f6	0.035454713
2	0xbf528e11	-0.82248026
3	0x3e1863ba	0.14881793
4	0x4114a015	9.289083
5	0xbe0de0da	-0.13855305
6	0xc0e531b8	-7.162319
7	0x3f6033f0	0.8757925
8	0xbf0457aa	-0.51696265
9	0xbf95502c	-1.1665092
10	0xbdba14f5	-0.090860285
11	0xbe98efb2	-0.29870373
12	0x41b2f732	22.3707
13	0x3d99fa3c	0.075184315
14	0x40ab4f0e	5.3534
15	0xbf378fe3	-0.7170393
16	0x416da553	14.852862
17	0xbd12d0d4	-0.035843685
18	0x3d26b861	0.04070318
19	0xbd468c79	-0.04847381
20	0xbf63a6ba	-0.8892628
21	0xbf279044	-0.65454507
22	0xbebbee0c	-0.36705053
23	0xbdaa0d6c	-0.08303341
24	0xc04291d5	-3.040151
25	0x3fac895e	1.3479421
26	0x4131a599	11.102929
27	0x3e18bc1e	0.14915511
28	0xbe9c91c2	-0.30579954
29	0xbea4b26a	-0.3216737
30	0x3f126e41	0.57199484
31	0x408ac473	4.3364806
32	0x3f280fd6	0.65649164
33	0xc05da456	-3.4631553
34	0x3f286367	0.65776676
35	0x3f2a76d5	0.66587573
36	0xbe001221	-0.12506916
37	0xbef8b18c	-0.48572958
38	0x40bb8ea9	5.8611646
39	0x3f394ac7	0.72379726
40	0x3e84d68b	0.25944933
41	0xc14ffefd	-12.999753
42	0x410e632d	8.899213
43	0xbcdb255b	-0.02675121
44	0xbcf7d338	-0.030252084
45	0x407859b5	3.8804753
46	0x3e703d1b	0.2346081
47	0xbe86a455	-0.2629725
48	0xbf51e8aa	-0.8199564
49	0xbe811e6c	-0.25218523
50	0x3f8fcf86	1.1235206
51	0x3e93c72d	0.28862897
52	0x3f745d71	0.9545508
53	0x3e8a645b	0.2702969
54	0x3dd1087d	0.10206697
55	0xbf1532fd	-0.58280927
56	0xbdb03008	-0.08602911
57	0xc18b9b3d	-17.4508
58	0x3e2c3d3b	0.16820233
59	0xc19f0f70	-19.882538
60	0xbf95eed9	-1.1713516
61	0x3e1fed10	0.15617776
62	0xbf8c9fc2	-1.0986254
63	0x40d6896d	6.7042756
64	0xbd92d1a2	-0.071688905
65	0x400971e4	2.1475763
66	0xbea1a0f7	-0.3156812
67	0x4136c99e	11.424223
68	0xbe841832	-0.2579971
69	0x41046c0f	8.2763815
70	0xbfa7d30f	-1.3111285
71	0x3e360a5f	0.17777394
72	0xc0246c00	-2.5690918
73	0x4094a4e0	4.6451263
74	0xbf15fe5b	-0.5859124
75	0x3f8a2ddc	1.0795245
76	0xbed32c5a	-0.41244775
77	0x417ce6c3	15.806338
78	0xbe09d94f	-0.13461803
79	0xc00ebda5	-2.230325
80	0xbe91a992	-0.28449684
81	0xbf49e4a4	-0.788645
82	0xbe9d3d31	-0.30710748
83	0xbf899dc2	-1.0751269
84	0xbf5b9da5	-0.8578742
85	0x3ccad3a6	0.024759125
86	0xbf6c12fe	-0.9221648
87	0xbfa2b488	-1.2711344
88	0xbef32725	-0.47490802
89	0x4121ce59	10.112878
90	0x411e4210	9.891129
91	0x407f5044	3.989274
92	0xbf3a34cd	-0.7273682
93	0xc0af35a0	-5.475296
94	0x3d0e6014	0.034759596
95	0xbf99e053	-1.2021583
96	0x3f1257fc	0.57165504
97	0xbf13425c	-0.5752313
98	0xbe3cd9f8	-0.18442523
99	0x3ed494c1	0.4151974
100	0x3f00e80a	0.50354064
101	0x3ea8d847	0.32977507
102	0xbff4fa7b	-1.913894
103	0x3f80764c	1.0036101
104	0x3bb6dccd	0.0055805207
105	0xc199c50d	-19.221216
106	0x3ea5c3d2	0.32375962
107	0xc190666a	-18.050007
108	0x3e2706c3	0.16311173
109	0xc1ae8b00	-21.817871
110	0x41b26660	22.299988
111	0xc0ad9d43	-5.425447
112	0xbe1a1dd0	-0.15050435
113	0x3b4685cd	0.0030292154
114	0xbdb8f496	-0.09031026
115	0x3f067206	0.52517736
116	0xbd7c8f66	-0.061660193
117	0x3eb98111	0.36231282
118	0x4147342a	12.450235
119	0x3dde3e1c	0.1085169
120	0x40836de9	4.107167
121	0x418896cd	17.073633
122	0xbfa75184	-1.3071752
123	0x3cdfc0b0	0.02731356
124	0x3e717b46	0.23582181
125	0xc03c4b47	-2.9420946
126	0xbd2fce7d	-0.042921532
127	0xbc6b6806	-0.014368063
128	0xc115bb87	-9.358283
129	0x3e6e158e	0.2325041
130	0x41ab21ce	21.391506
131	0xc0c76814	-6.231455
132	0xbe554cf3	-0.20830135
133	0xbdd3fb77	-0.103506975
134	0xbd117c73	-0.035519075
135	0xbe72c1e1	-0.23706771
136	0xbe47786b	-0.1947953
137	0x3ef7f2f6	0.48427552
138	0x4145059b	12.3138685
139	0x3e3bd389	0.18342413
140	0xc0cd608d	-6.418036
141	0xc11b17ea	-9.693338
142	0x404696fa	3.1029649
143	0xbf90c5e2	-1.1310389
144	0x3f9747dd	1.1818806
145	0xbf2b4fde	-0.6691874
146	0x3ffc3f0e	1.9706743
147	0xc08093fe	-4.0180655
148	0xc08a45ef	-4.321037
149	0xc0897f18	-4.2967644
150	0x404613c9	3.0949576
151	0xc065766c	-3.585353
152	0xc18fd270	-17.977753
153	0x3e9301dd	0.2871236
154	0xc1db2b8a	-27.39626
155	0xc1a16cdb	-20.178152
156	0xc1f0b8d3	-30.090246
157	0x3f7ad21b	0.97976846
158	0x3e0ac34a	0.1355106
159	0xbee649ad	-0.44978085
160	0xbe14bc67	-0.14524995
161	0x3c5976f3	0.013272989
162	0x41d0d1af	26.102385
163	0x3df16a8a	0.11787899
164	0x415961e3	13.586398
165	0xbf5298cd	-0.82264405
166	0x405b33a0	3.425026
167	0x3e10496f	0.14090513
168	0x3d97dacf	0.07414781
169	0x3d020b4c	0.031749055
170	0xc042c080	-3.0429993
171	0xbfae3ecb	-1.3612913
172	0xbf5339ca	-0.82510054
173	0x418c8b33	17.567968
174	0x3d24e899	0.040260885
175	0x3e8448b5	0.2583672
176	0xbef09a10	-0.4699254
177	0xbee202c6	-0.4414274
178	0xc0684cdb	-3.629691
179	0xc020b0d0	-2.5107918
180	0x3f7ac44a	0.97955763
181	0xbfb03824	-1.3767133
182	0x3fe205f9	1.7658073
183	0xbf56aa32	-0.8385345
184	0x3eb22f68	0.34801793
185	0x4019308d	2.3935883
186	0xbd6ec2a7	-0.058291104
187	0xbf65832c	-0.8965328
188	0x3f5caa3c	0.8619726
189	0x410b3fb6	8.703054
190	0xc181a80e	-16.207058
191	0x3ebb427f	0.3657417
192	0xc0f36af1	-7.6068044
193	0x3eacdd34	0.33762515
194	0xc061d4f7	-3.5286233
195	0x4188b0f5	17.086405
196	0xbfe8c914	-1.8186364
197	0x3f4b4988	0.79409075
198	0xc15c7b1b	-13.780055
199	0x40e3b980	7.116394
200	0xc001f117	-2.03034
201	0x4147cd42	12.487612
202	0xc0032326	-2.0490203
203	0xbc9d916a	-0.019234378
204	0x3ea9b279	0.33143976
205	0xc0666102	-3.599671
206	0xbed4bfe7	-0.4155266
207	0xbbfd1894	-0.007723877
208	0x40656c13	3.5847213
209	0x3de9908f	0.114045255
210	0xbf04a941	-0.5182076
211	0xbe14e567	-0.14540635
212	0xc0270a5c	-2.6100073
213	0xbd481673	-0.048849534
214	0x409df663	4.9363265
215	0x3e76e6b9	0.24111451
216	0x40ac6456	5.387248
217	0xbe7fda4c	-0.24985617
218	0x3d6f401e	0.058410756
219	0x3bd86f51	0.006605067

bias f4 [22]
0	0x3ee5c756	0.44878644
1	0x3f60466c	0.87607455
2	0x3e8ae84a	0.27130347
3	0xbfb2f024	-1.3979535
4	0xbc8b127d	-0.01697659
5	0x401e58e2	2.474175
6	0xc072ada4	-3.7918482
7	0xbfdbc762	-1.7170222
8	0xbd482241	-0.048860792
9	0xbf630c0e	-0.8869027
10	0x403c421d	2.9415352
11	0x3f49a442	0.7876626
12	0x3f74f6d7	0.9568915
13	0x3f4f060a	0.8086859
14	0x40013e0c	2.019412
15	0x40389c22	2.8845296
16	0x3f7f4324	0.99711823
17	0x3f9eb4de	1.2398946
18	0xbfd877c4	-1.691155
19	0x3f37b885	0.7176593
20	0x3f83ea27	1.0305833
21	0x3e0420cd	0.12903138

weight f4 [32, 22]
0	0x3f8969e4	1.073544
1	0x3eccfbba	0.40035802
2	0x3ffb547c	1.9635158
3	0xbe97257a	-0.2952078
4	0xc08b8d80	-4.361023
5	0xc18d3953	-17.65299
6	0xc0fce0ac	-7.902426
7	0xc111651a	-9.087183
8	0xc0df9f21	-6.988175
9	0xbe540337	-0.20704351
10	0xc12d0fd5	-10.816365
11	0xbd8c0f26	-0.06838827
12	0xbf5de13b	-0.866718
13	0xbe7554c0	-0.23958111
14	0xbf7aac82	-0.97919476
15	0x400f01ab	2.2344768
16	0x3ecedfcc	0.40405118
17	0xc04f008f	-3.234409
18	0xc0e7e6b5	-7.2469125
19	0x3f710e30	0.94162273
20	0xbcedff55	-0.029052416
21	0x4003fdf3	2.0623748
22	0xc17c3b7c	-15.764523
23	0xc139d622	-11.6147785
24	0xc18a9cc7	-17.326551
25	0x3f33add8	0.7018714
26	0xbe9e96de	-0.30974478
27	0x3eea92ea	0.45815212
28	0x3eb6d226	0.35707206
29	0x3e8b1345	0.2716314
30	0x3e7e6c72	0.24846056
31	0x3ea45c9d	0.32101908
32	0x4014db06	2.3258681
33	0xbefa25ac	-0.48856866
34	0x3dec01f8	0.11523813
35	0xbee8d911	-0.4547811
36	0xbfe3b837	-1.7790593
37	0x41480463	12.501071
38	0xc13186e8	-11.095436
39	0x3e166c64	0.14689785
40	0x3f304796	0.6885923
41	0x3cc5a784	0.02412773
42	0xbe4437da	-0.1916193
43	0xc1456486	-12.337042
44	0xc05fdc60	-3.4978256
45	0x3ce2e38a	0.02769639
46	0x3fcd5ada	1.6043351
47	0xc02b2304	-2.6740122
48	0xc208408b	-34.06303
49	0xbf6e8714	-0.9317486
50	0xbf048489	-0.5176473
51	0xbe312cac	-0.17302197
52	0x3d910f19	0.07082958
53	0xbfc0564d	-1.5026337
54	0x410c4ceb	8.768779
55	0x400c3a1e	2.1910472
56	0x411cf389	9.809457
57	0x400e2ccb	2.221484
58	0xc004f86e	-2.077663
59	0xbf784781	-0.96984106
60	0xbc0b25a9	-0.008492866
61	0xbd00bca6	-0.03142991
62	0x3d784b81	0.06061888
63	0xbfd45e65	-1.6591307
64	0x419aa575	19.33079
65	0x3f93c4ba	1.1544411
66	0xc18d3141	-17.64905
67	0xc119606b	-9.58604
68	0xc2456028	-49.343903
69	0x3e5e58d9	0.2171358
70	0xc0aed699	-5.463696
71	0x3eca28a7	0.3948414
72	0xbeaf865b	-0.34282193
73	0xbeef1f29	-0.4670346
74	0x3f00c5d5	0.5030187
75	0x3f22b964	0.63564134
76	0xbd4a952f	-0.04945868
77	0xbf916d40	-1.1361465
78	0x3e2df667	0.16988526
79	0xbf8a4e8b	-1.080522
80	0x3f9320b0	1.149435
81	0xbf6e3f8d	-0.9306572
82	0xc112db66	-9.178564
83	0x3e0792ca	0.1323959
84	0x3f5ba37f	0.8579635
85	0xbe86cfc2	-0.26330382
86	0x3d3474b3	0.044056606
87	0xc19ad94f	-19.356108
88	0x3fed59e5	1.8543059
89	0x3e0f6003	0.1400147
90	0xbf35f995	-0.71083957
91	0xbffec1d6	-1.9902904
92	0x4207a02a	33.90641
93	0x3f8dc1b0	1.1074734
94	0x3e241f03	0.16027455
95	0xbce02607	-0.027361883
96	0x3f0189c2	0.50600827
97	0xc022f957	-2.5464685
98	0xc092b16d	-4.5841584
99	0xbf140552	-0.5782062
100	0xc20a357a	-34.552223
101	0xbf9bbf60	-1.2167778
102	0x3fda110e	1.7036455
103	0xc1c77b87	-24.935316
104	0x3e6fe59b	0.23427431
105	0xbd749238	-0.059709758
106	0x3f935585	1.1510473
107	0x3ee6cdfd	0.45079032
108	0xc2328cb4	-44.637405
109	0xbf63c7be	-0.8897666
110	0xc048fc18	-3.1403866
111	0xbe885ae3	-0.2663184
112	0xbffca1fc	-1.9736934
113	0xc1801cf0	-16.01413
114	0xbfca33be	-1.579704
115	0xbfeed3de	-1.8658407
116	0x411bf834	9.748096
117	0x41366699	11.400048
118	0x3edc4394	0.43020308
119	0xc186bdbd	-16.842646
120	0x3f5758b9	0.84119755
121	0x3f1bbc2b	0.60833997
122	0xc08d5bba	-4.417447
123	0x3fb2498c	1.3928695
124	0xc053cee4	-3.3095026
125	0x414abb09	12.670663
126	0x3da99484	0.0828028
127	0x4148831e	12.532011
128	0xc0443519	-3.0657408
129	0x4006455e	2.0979838
130	0xbfb5d3b9	-1.4205238
131	0xc03b0bef	-2.9226034
132	0xbff3bc08	-1.9041758
133	0x3eac152b	0.336099
134	0x3d977daa	0.073970154
135	0x4014eb5f	2.326866
136	0xc0e96371	-7.293389
137	0x3e52865b	0.20559065
138	0xbec42315	-0.38308015
139	0xbd701c00	-0.058620453
140	0x400598fa	2.087462
141	0x3fe3dad3	1.7801155
142	0x3f982576	1.1886432
143	0xbe222890	-0.15835786
144	0x40d6f4d7	6.7173877
145	0xbdab81fb	-0.08374401
146	0x3f4aadf3	0.79171675
147	0xbf122f18	-0.5710311
148	0x3f00931a	0.5022446
149	0xc11ce91f	-9.806914
150	0xbfe17640	-1.7614212
151	0xc15fa35b	-13.977382
152	0x40a7f080	5.248108
153	0xbe8a59de	-0.27021688
154	0x40bdb4f6	5.92834
155	0xbf4ce659	-0.8003898
156	0x406585d4	3.5862932
157	0xbeec61ad	-0.4616827
158	0x40d6f45b	6.7173285
159	0xbec2093e	-0.37897676
160	0xc153a226	-13.227087
161	0xc15e75c0	-13.903748
162	0xc181a55d	-16.205744
163	0xbf6a7aec	-0.91593814
164	0x3f26f97d	0.6522444
165	0xbf826291	-1.018633
166	0xbf96f369	-1.1793033
167	0xbf9379fa	-1.1521599
168	0x40a21319	5.0648313
169	0x3f0266dc	0.509382
170	0xbf249d2a	-0.64302313
171	0x3f577960	0.8416958
172	0x40af4ce3	5.4781356
173	0xc0a1b520	-5.05336
174	0xc01363f5	-2.302976
175	0x3f7b76c5	0.982281
176	0x416e676f	14.900252
177	0x4167feae	14.499678
178	0x411f2c95	9.948384
179	0xc06a2a11	-3.6588175
180	0xc0a3f25a	-5.123334
181	0xc05b1ae9	-3.4235175
182	0xbf237d47	-0.63863033
183	0xbf1e6445	-0.6187175
184	0x40815b31	4.042382
185	0xc07e762a	-3.9759622
186	0xc00ba6c9	-2.1820548
187	0x3e8e1082	0.2774697
188	0xbfa6b2a3	-1.3023266
189	0x3eec481c	0.46148765
190	0x412b5434	10.708057
191	0x3f5defe1	0.8669415
192	0x41784a42	15.518129
193	0x3fb1d0a7	1.3891801
194	0x40860b1c	4.188856
195	0x3f8ab3c4	1.083611
196	0x3fc2885a	1.5197861
197	0x419beb9d	19.490046
198	0xc14fbd9e	-12.983793
199	0xbe9f5aaa	-0.3112386
200	0xc16df2e1	-14.871797
201	0x3fdb7896	1.7146175
202	0xbf0c5fa1	-0.5483342
203	0x3c903e83	0.017607933
204	0x4068fe31	3.6405146
205	0x407dcd50	3.9656563
206	0x3f9692b4	1.176352
207	0x3fc4c393	1.5372185
208	0x3fc1873b	1.5119394
209	0x3f2ed2fb	0.6829068
210	0x3f3989ec	0.7247608
211	0x3d8a9306	0.06766324
212	0xc192a54b	-18.33071
213	0xbeefc975	-0.46833387
214	0xbd8a1dc5	-0.06743959
215	0xbe06ab13	-0.13151197
216	0xbec1092a	-0.37702304
217	0x3fa091dd	1.2544514
218	0x3f77657a	0.96639216
219	0xc1922fa1	-18.273256
220	0x3f935431	1.1510068
221	0x3cb8def2	0.022567246
222	0x4003c79f	2.059059
223	0x41128231	9.156785
224	0x40d06ea0	6.513504
225	0xbf740676	-0.9532236
226	0x3e74b74b	0.23898046
227	0x3e15cecd	0.1462967
228	0x3ea90444	0.33011067
229	0x4115d4d6	9.364462
230	0x40e6c579	7.2116055
231	0xbf920507	-1.1407784
232	0x411c0f7b	9.753779
233	0xbe7ba0c7	-0.2457305
234	0xc0564df8	-3.3485088
235	0x3f3e8347	0.74419063
236	0xbe944da2	-0.2896548
237	0xbe4978c6	-0.19674978
238	0x3f19db2e	0.60100067
239	0xbe3e0cbf	-0.1855955
240	0xbe9012db	-0.28139386
241	0x3f325062	0.69653904
242	0x406d0f36	3.7040534
243	0x3f4c2cd3	0.79755896
244	0x40ca72a5	6.3264947
245	0xbee237d2	-0.44183213
246	0xbe59f19a	-0.2128357
247	0xc01eaa21	-2.4791338
248	0x3fd3c825	1.6545454
249	0x40134a47	2.3014085
250	0x41094857	8.580161
251	0xbfb75322	-1.4322245
252	0x3ec2e927	0.38068506
253	0x3fced670	1.6159191
254	0xbf511b44	-0.8168223
255	0x3e783263	0.24237971

bias f4 [32]
0	0x407e51b6	3.9737372
1	0x403b3758	2.925253
2	0xc007e63e	-2.1234279
3	0x40a191f2	5.0490656
4	0x40225fa5	2.5370877
5	0x40506bb8	3.2565746
6	0x3e4669a1	0.19376232
7	0x3faa6de2	1.3314784
8	0xbf7c390d	-0.9852455
9	0x3fb12998	1.3840818
10	0xc0aa2224	-5.3166676
11	0xc0dc825e	-6.890914
12	0x404ead24	3.2293177
13	0x409067d1	4.512673
14	0xbef9edd4	-0.4881426
15	0xc0c2a739	-6.082913
16	0x3ef21b84	0.47286618
17	0x400edc77	2.232206
18	0x3faac93b	1.3342661
19	0xc0489682	-3.1341863
20	0x3f06cbc6	0.52654684
21	0xbfb418b5	-1.407004
22	0xbf87f13e	-1.0620496
23	0x3fb8f229	1.4448901
24	0x3fc817de	1.5632284
25	0x3eca00ce	0.3945374
26	0xbf16a6e5	-0.5884841
27	0xc098c53c	-4.7740765
28	0xc0a286fc	-5.0789776
29	0x404660f4	3.0996675
30	0xc0064f87	-2.098604
31	0xc08e5783	-4.4481826

weight f4 [42, 32]
0	0xbf1c422e	-0.6103848
1	0x41b045c1	22.03406
2	0x3fb0bc4a	1.3807461
3	0x4110d43e	9.051817
4	0xbf9a99e2	-1.2078211
5	0x4093ccdd	4.6187577
6	0x40d8e848	6.7783546
7	0xbeb35019	-0.35022047
8	0x3e07691a	0.13223687
9	0x408d1838	4.4092064
10	0x3f9b27a3	1.2121471
11	0xc00ba4f7	-2.1819437
12	0x3fb713c0	1.4302902
13	0x40cfd52e	6.494773
14	0x3eec2da1	0.46128562
15	0xbec513ec	-0.38491762
16	0xbfd5ea1b	-1.6712068
17	0x41b243b0	22.28305
18	0x3feab2a6	1.8335769
19	0xbfba373b	-1.4548105
20	0x414e0964	12.877293
21	0xbeb31f8d	-0.3498501
22	0xbfe860da	-1.8154557
23	0x3f0f5c04	0.5599978
24	0x3e70f75c	0.2353186
25	0xbf33e8a1	-0.7027684
26	0x40996584	4.793642
27	0x3e55be91	0.20873477
28	0x414c55c8	12.770943
29	0x3fb287d4	1.3947701
30	0xc009c846	-2.1528487
31	0xbe66daad	-0.22544356
32	0xc1c6bfa6	-24.843578
33	0xc16f576c	-14.958843
34	0xbdb20873	-0.08693018
35	0xc18b0b66	-17.380566
36	0x3db83cbf	0.089959614
37	0x3ee355c0	0.4440136
38	0xc043ac7f	-3.0574033
39	0xc04d5cf3	-3.2087982
40	0x3e963d3c	0.29343593
41	0xbf564948	-0.8370557
42	0x3e9a6f14	0.3016287
43	0x3f9e0962	1.2346613
44	0xc155e048	-13.367256
45	0x3f1b2151	0.6059771
46	0x4012a9f2	2.2916226
47	0x3f3d0b37	0.7384524
48	0x40104d26	2.2547088
49	0xc0a07cb4	-5.0152225
50	0xc02d5b68	-2.708704
51	0xbfe557cd	-1.791742
52	0xc0070f75	-2.1103184
53	0xc049c6b8	-3.1527538
54	0xc24d9925	-51.399555
55	0x3e824037	0.25439617
56	0xbebb9cf2	-0.36643177
57	0xc1c3874b	-24.441061
58	0x3e144752	0.14480332
59	0x3f8c8588	1.097825
60	0xc0001d04	-2.001771
61	0xc0865b80	-4.1986694
62	0xc16b7e18	-14.718285
63	0x3f94746d	1.159803
64	0x3e935ed6	0.28783292
65	0xc100cf51	-8.050614
66	0x3fab8739	1.3400642
67	0xc0cd626f	-6.418266
68	0xbf8ff019	-1.1245147
69	0xc022f0d2	-2.5459485
70	0x4023182b	2.54835
71	0xbff2bab1	-1.8963224
72	0xbe2898b8	-0.16464508
73	0xc0b97cd8	-5.7964897
74	0x3ea9af4e	0.3314156
75	0xc2153ee3	-37.311413
76	0x40378014	2.8671923
77	0x3f3129a3	0.6920416
78	0x401af93a	2.4214616
79	0xc0cc0601	-6.375733
80	0xc1017762	-8.091646
81	0xc11e05a0	-9.876373
82	0xbfe626ad	-1.7980553
83	0xc19a3dd5	-19.280191
84	0x3f439330	0.76396465
85	0xc095b517	-4.6783557
86	0xc1a7526a	-20.915241
87	0x3d727fa4	0.05920376
88	0xc020fe0d	-2.515506
89	0xbfd0d640	-1.6315384
90	0xc0d069f6	-6.5129347
91	0xc1089cdf	-8.538299
92	0xc0b5f63e	-5.686309
93	0x3f0545f7	0.5205988
94	0xc19e1e59	-19.764818
95	0xc038da59	-2.888327
96	0xc03cd959	-2.9507658
97	0xc045cfc8	-3.090807
98	0xbf09ede8	-0.5387864
99	0xc05b6c32	-3.4284787
100	0xbf9aa119	-1.2080413
101	0xbdf1a6bb	-0.117993794
102	0xbfa336a0	-1.2751045
103	0xbf95f912	-1.1716635
104	0x3ed877c5	0.42278877
105	0xc04117a9	-3.017069
106	0xbe8951aa	-0.26820117
107	0xc003caa2	-2.0592427
108	0xbf1ba824	-0.6080344
109	0xc0851ab1	-4.159508
110	0xbfcb1635	-1.5866152
111	0xbfa6e90d	-1.3039871
112	0xbfc587ab	-1.5432028
113	0xc01ac169	-2.4180548
114	0xc011b799	-2.276831
115	0xbffbe839	-1.9680244
116	0xc0090e56	-2.1415
117	0xbcdc5b35	-0.02689896
118	0xc00981c9	-2.1485465
119	0x3f3109f1	0.69155794
120	0xbf31595b	-0.6927697
121	0xbfeb28f8	-1.8371878
122	0xbe7c7a72	-0.24656084
123	0xbf850879	-1.0393211
124	0xbf5cfcb4	-0.86323094
125	0xbeecac7f	-0.46225354
126	0xbf930085	-1.1484534
127	0xbd1bac23	-0.03800596
128	0xbfa74faf	-1.3071193
129	0xc08e6d29	-4.450825
130	0xc1b76732	-22.925388
131	0xc0a1c77d	-5.0556016
132	0x3ebd5299	0.3697708
133	0xc1d17532	-26.182224
134	0xc139c370	-11.610214
135	0x3c75b28c	0.014996182
136	0x3e32355e	0.1740317
137	0xc0cdd91f	-6.432754
138	0xbf0a233b	-0.5396001
139	0xbeff0c68	-0.49814153
140	0xbfc4c07f	-1.5371245
141	0xc0b54f03	-5.665895
142	0x3f93f247	1.1558312
143	0x3dc5fcde	0.09667371
144	0xbe487177	-0.19574533
145	0xc0738e2e	-3.805553
146	0xc0919a4f	-4.5500865
147	0x3f488993	0.7833492
148	0xc169e0cb	-14.617381
149	0x3f996f29	1.1987048
150	0xc05bfb4e	-3.4372134
151	0xbf5403d4	-0.8281834
152	0x3edd40f7	0.43213627
153	0xc19037f6	-18.027325
154	0xc1dd093d	-27.62951
155	0xc0853945	-4.163241
156	0xc1b262e0	-22.298279
157	0xc18ca583	-17.580816
158	0x3caa6225	0.020798752
159	0xbe823354	-0.25429785
160	0xbe0ea48a	-0.13929954
161	0x4174c9d5	15.299275
162	0x3e6a5042	0.22882178
163	0x41457ea9	12.343423
164	0xbf4687f8	-0.7755122
165	0x3fa4fb3c	1.2889171
166	0x40398530	2.8987541
167	0xc047c6c3	-3.1215065
168	0x3d0ec3d8	0.03485474
169	0x419e2dbc	19.772331
170	0xbe33ec53	-0.1757062
171	0x3f72b497	0.9480681
172	0xbf9165ca	-1.1359189
173	0x40eb7386	7.357852
174	0x3f7162ef	0.94291586
175	0xbfca66ba	-1.58126
176	0xbc91bf96	-0.01779155
177	0x41dc5da3	27.545721
178	0x40ae524d	5.4475465
179	0xbf28d2be	-0.6594657
180	0x404ec2d2	3.230641
181	0xbf8a85d6	-1.0822093
182	0x3f24a0b2	0.643077
183	0xbff94e03	-1.9476932
184	0x3e90b5bc	0.28263652
185	0x3eb3b3e2	0.35098177
186	0x3fcd353b	1.603187
187	0x3f54f192	0.8318111
188	0x4096ef46	4.716708
189	0x3fcb26c4	1.5871205
190	0xbfa1f4c0	-1.2652817
191	0xbf72ee14	-0.9489453
192	0xbf07eba1	-0.53093916
193	0x42366923	45.602673
194	0xbf214e30	-0.6300993
195	0x42285272	42.080513
196	0x3f056cc6	0.521191
197	0x3f183496	0.5945524
198	0xbea73c5d	-0.3266324
199	0xbf1218bb	-0.57068986
200	0xc037c8c8	-2.8716297
201	0x3f7167a4	0.9429877
202	0x3f00a6d8	0.50254583
203	0xbfc289f3	-1.5198349
204	0xc0f25527	-7.5728946
205	0x3f3a0fe0	0.72680473
206	0xbd910a1d	-0.07082007
207	0x3eaf4874	0.34234965
208	0xc0ed57e1	-7.4169774
209	0x41d72a0f	26.895536
210	0xbecf6967	-0.40510103
211	0xbdc59a6c	-0.09648594
212	0x3fc6fb5d	1.554546
213	0xbd49982b	-0.049217384
214	0x3e8dcded	0.2769617
215	0xc003e4d1	-2.0608408
216	0xbefa1042	-0.4884053
217	0x3e70e454	0.235246
218	0xbe8d11e5	-0.27552715
219	0xbfd6bda1	-1.677662
220	0xbf709de0	-0.939909
221	0xbfa0119d	-1.2505375
222	0x3e8c2f83	0.2738
223	0xbbd39182	-0.006456555
224	0x3f7aec10	0.9801645
225	0xc18409db	-16.504812
226	0x3eb24e94	0.34825575
227	0xc12302e4	-10.188206
228	0xbe8e28b4	-0.2776543
229	0x3dec2ef2	0.115323916
230	0x403afe88	2.9217854
231	0xc04d1f88	-3.2050495
232	0x3e416ce3	0.18889193
233	0xc148302f	-12.511764
234	0x3f9c8ce3	1.2230495
235	0xbf900a03	-1.1253055
236	0xbec33ce0	-0.3813238
237	0xbf87b892	-1.0603201
238	0xc0f8fd96	-7.7809553
239	0xbfceb2d5	-1.6148325
240	0xc03f0f7b	-2.9853199
241	0xc1ae0b3d	-21.755487
242	0xc141a995	-12.103902
243	0x3f4f7aec	0.8104694
244	0x40b30e0e	5.5954657
245	0xbd9d3c14	-0.076774746
246	0xbf456761	-0.7711087
247	0xbce676c4	-0.028132804
248	0xc0716aae	-3.7721362
249	0x3ed9a110	0.42505693
250	0x3f61d9d9	0.88223034
251	0xbf900d4a	-1.1254056
252	0x400f9873	2.2436798
253	0x40190dda	2.3914704
254	0xc0192528	-2.3928928
255	0xbfa5a9ba	-1.2942421

bias f4 [42]
0	0x3f95c4a0	1.170063
1	0xc016e59a	-2.3577638
2	0xbf9f7f11	-1.2460653
3	0xc0b6fdf0	-5.718498
4	0xc04c5303	-3.1925666
5	0x3f92091c	1.140903
6	0xbfb7e997	-1.4368161
7	0x3f8a1769	1.0788394
8	0xc00a4679	-2.1605513
9	0xc0648ab0	-3.5709648
10	0xc0875f51	-4.2303853
11	0xbe4b9a31	-0.19883038
12	0xbf86d998	-1.0535154
13	0x3ea1342e	0.31485122
14	0x3f9f6e0b	1.2455457
15	0xc0327f5b	-2.7890232
16	0xc05265c3	-3.287461
17	0xc0726dfa	-3.7879624
18	0xbfbca86c	-1.4738898
19	0xc0610f2d	-3.5165513
20	0xc0b07b70	-5.515068
21	0xc005b003	-2.088868
22	0xc0b8d48a	-5.7759447
23	0xbfaea119	-1.3642913
24	0xc03a3127	-2.90925
25	0xc094c7fa	-4.649411
26	0xc05f4b6f	-3.488979
27	0xc06ff80b	-3.7495143
28	0xbffbb3a1	-1.9664193
29	0xbfcc9d39	-1.598548
30	0xc09078de	-4.5147543
31	0x3d4c0215	0.049806673
32	0xc0aba594	-5.363962
33	0xbf1630c1	-0.5866814
34	0xc0bbceee	-5.86901
35	0xbeecd601	-0.46257022
36	0xc019cdcb	-2.4031856
37	0x4002da0f	2.0445592
38	0xc09eb10c	-4.959112
39	0xbf213a05	-0.62979156
40	0xbfc21082	-1.5161288
41	0xbfadfb94	-1.35924
